dqn_model_1416.pth (torch, 87381 bytes, 8 tensors)

fc1.weight f4 [256, 13]
0.5618666 0.026429912 0.23704419 -0.03727361 -0.5013778 -0.28629547 -0.29006857 -0.014056475
-0.58611375 0.017905045 -0.43814692 0.12451263 0.06569934 0.76252955 -0.2705154 0.7750771
0.38872743 -0.040311575 -0.092933856 -0.044670846 -0.36782986 0.0643862 0.03730061 0.07679074
-0.1924762 -0.2285146 -0.52378815 -0.32866403 0.024312764 0.0940528 0.36278075 0.15897033
-2.8121474 -1.0628531 -1.9754659 0.14588287 -0.2453637 -0.056505673 -0.16586605 0.36590436
-1.2289261 0.39378363 -0.5117937 -0.5289089 -0.226767 -0.3890947 -0.37961844 0.7079393
-0.28848526 0.06885959 0.14927651 0.100423664 0.010151756 -0.2940751 0.5654097 0.1830258
-0.79618466 0.23235632 0.3124032 -0.43910438 -0.3610982 0.5650493 -1.110644 -0.80133593
-0.5539805 0.11095391 0.9533819 -0.14494619 -0.003956209 0.18025698 -1.9276223 0.15565616
-0.03821321 -0.25667036 -0.1330734 -1.2912956 0.38130838 -0.40793553 -0.5004601 0.34765273
-0.4271164 0.20007837 -0.035283253 -0.4071894 -0.69760495 0.12489903 0.270674 0.012647588
0.41444218 -3.1481333 -0.026676396 0.5699239 -0.284498 0.09579305 -0.07927279 0.09450722
-0.46352533 -1.6238906 0.06857745 -2.8861911 -0.6057168 0.7402265 0.2731586 -0.76877457
-1.3479196 0.49613193 0.5035484 0.021203157 -0.21068023 0.05692779 0.08471624 0.33315036
0.01996016 -0.6034822 -0.0056805587 -0.6289833 -0.5325315 1.3430376 0.8036155 -0.82954
-0.5878701 0.058430344 -1.2612864 -1.7571863 0.19606037 -1.0667634 0.00070346805 -0.2236611
-0.49149823 -0.4972598 1.3141626 -1.8730358 -1.457669 -0.5324891 -0.10340599 -0.08182386
-0.1735262 0.3877387 0.14062463 -0.010159443 -0.24943092 -0.15077122 -0.03979677 -0.6580019
-0.06858238 0.30747032 -0.17201594 -0.46767616 -0.07497268 0.33709472 -0.247613 -0.0595795
0.36048394 -0.1550435 0.11649659 -0.15371254 0.479717 0.02838082 -0.86732626 -0.42673317
0.16681343 0.21661979 0.16699463 -1.605126 -0.41862324 -0.22034681 -0.6553369 -0.14591657
0.031365916 -0.526515 -0.5380412 -2.039425 1.1131998 -0.031780753 0.32967663 -0.13509497
-0.15261047 -0.05318709 0.05494619 -0.026573619 0.056694683 -0.32032537 -0.1772619 1.0648803
-0.41953498 0.48999843 -0.094107874 -0.15855418 -0.68586206 -0.3484875 -0.38098812 0.24780479
-1.0758283 -1.7097735 0.17546396 0.07645568 -0.58740395 -1.5006796 0.596183 0.24442118
0.04019694 -0.45571443 0.051990867 -0.35886928 0.21138355 0.21362758 -0.08275398 -0.07579953
-1.9827092 0.45514423 -1.3166679 -1.4845524 -0.007365129 -0.042538937 -1.7421315 0.41700435
0.063241884 -0.10153699 0.008153571 -0.10164992 -0.30775768 0.44446757 -0.42096597 0.099256285
-0.7492991 -0.089792326 -0.15272993 -2.3982282 -0.9749346 -1.0219744 -0.5970914 0.9409639
0.26213995 0.12076454 0.95908135 -2.03375 -0.23549645 -0.24861935 -0.092660256 -0.045395713
-1.8283495 0.090146676 0.7129055 -0.22353292 0.024153728 -0.0022481747 -0.1535592 -2.477499
1.4034394 0.8793925 -5.4308124 0.09738688 0.09225268 0.022446925 0.21663737 0.068131685
00000000: 7dd6 0f3f 8b83 d83c b6bb 723e 36ac 18bd
00000010: 4c5a 00bf 5295 92be de83 94be 214d 66bc
00000020: 8d0b 16bf 9aad 923c cb54 e0be 7a00 ff3d
00000030: 608d 863d 2335 433f ff80 8abe 746b 463f
00000040: 4807 c73e c01d 25bd 1b54 bebd c7f8 36bd
00000050: 3254 bcbe e9dc 833d 86c8 183d 7744 9d3d
00000060: 7b18 45be bbff 69be fb16 06bf a746 a8be
00000070: 902b c73c c19e c03d 66be b93e 1ec9 223e
00000080: 39fa 33c0 920b 88bf 11dc fcbf 5262 153e
00000090: 9f40 7bbe 7e72 67bd cad8 29be d157 bb3e
000000a0: 734d 9dbf 029e c93e e904 03bf 9366 07bf
000000b0: 9c35 68be 6c37 c7be 595d c2be 833b 353f
000000c0: 57b4 93be 4206 8d3d f1db 183e ecaa cd3d
000000d0: 8d53 263c 0391 96be b1be 103f 1e6b 3b3e
000000e0: c2d2 4bbf d1ee 6d3e 50f3 9f3e 4ad2 e0be
000000f0: dde1 b8be 12a7 103f 9529 8ebf 5a24 4dbf
00000100: abd1 0dbf ce3b e33d d610 743f c66c 14be
00000110: 16a3 81bb 4995 383e 54bc f6bf 5464 1f3e
00000120: 7485 1cbd 4c6a 83be 6544 08be 2d49 a5bf
00000130: da3a c33e eddc d0be 271e 00bf 8aff b13e
00000140: 00af dabe 58e1 4c3e 2c85 10bd 217b d0be
00000150: 3d96 32bf 10cb ff3d c895 8a3e d437 4f3c
00000160: c431 d43e 047b 49c0 7588 dabc 88e6 113f
00000170: b9a9 91be 262f c43d c659 a2bd 008d c13d
00000180: 3153 edbe a6db cfbf 5672 8c3d 5bb7 38c0
00000190: 4210 1bbf 7c7f 3d3f 72db 8b3e 69ce 44bf
000001a0: a188 acbf 0105 fe3e 8ce8 003f 3eb2 ad3c
000001b0: 8fbc 57be 1d2d 693d b57f ad3d af92 aa3e
000001c0: 7d83 a33c cf7d 1abf fb23 babb 0d05 21bf
000001d0: fc53 08bf a8e8 ab3f bfb9 4d3f bc5c 54bf
000001e0: a87e 16bf a854 6f3d d571 a1bf 7beb e0bf
000001f0: 0dc4 483e b48b 88bf f168 383a 6a07 65be
00000200: a8a5 fbbe d698 febe 7b36 a83f a3bf efbf
00000210: e694 babf 3551 08bf 85c6 d3bd 4593 a7bd
00000220: dab0 31be b085 c63e e7ff 0f3e cb73 26bc
00000230: d26a 7fbe c563 1abe f001 23bd d072 28bf
00000240: eb74 8cbd c06c 9d3e f224 30be 4073 efbe
00000250: 478b 99bd ae97 ac3e 438e 7dbe a209 74bd
00000260: 5a91 b83e b9c3 1ebe c495 ee3d d266 1dbe
00000270: 779d f53e e57e e83c 1809 5ebf c57c dabe
00000280: 24d1 2a3e 94d1 5d3e a400 2b3e c574 cdbf
00000290: c955 d6be 98a2 61be 29c4 27bf 276b 15be
000002a0: 8c79 003d b0c9 06bf 11bd 09bf f085 02c0
000002b0: 557d 8e3f 892c 02bd 60cb a83e 5656 0abe
000002c0: eb45 1cbe b5da 59bd 420f 613d ebb0 d9bc
000002d0: af38 683d b001 a4be 2584 35be ff4d 883f
000002e0: 4acd d6be 13e1 fa3e a1bb c0bd 075c 22be
000002f0: a894 2fbf f46c b2be e010 c3be 8ac0 7d3e
00000300: beb4 89bf dcd9 dabf d3ac 333e cc94 9c3d
00000310: 1b60 16bf 4516 c0bf 739f 183f 8c49 7a3e
00000320: 8ca5 243d 6753 e9be 60f4 543d b7bd b7be
00000330: ee74 583e 30c1 5a3e eb7a a9bd c93c 9bbd
00000340: 6ac9 fdbf aa08 e93e 9388 a8bf d005 bebf
00000350: 2e57 f1bb 4f3d 2ebd 2afe debf 9881 d53e
00000360: f684 813d a0f2 cfbd 8e96 053c d52d d0bd
00000370: 6a92 9dbe 4191 e33e da88 d7be e146 cb3d
00000380: 11d2 3fbf 0ae5 b7bd 3c65 1cbe 927c 19c0
00000390: 5095 79bf 0fd0 82bf fbda 18bf 03e3 703f
000003a0: 3537 863e 6653 f73d 5b86 753f f628 02c0
000003b0: fb25 71be 1296 7ebe a9c4 bdbd dbf0 39bd
000003c0: 5b07 eabf d29e b83d fa80 363f d0e5 64be
000003d0: 0ade c53c 1d56 13bb 9f3e 1dbe 588f 1ec0
000003e0: e7a3 b33f de1f 613f 37c9 adc0 c672 c73d
000003f0: f9ee bc3d 9de2 b73c 30d6 5d3e a088 8b3d

fc1.bias f4 [256]
1.1058556 1.4021819 -0.035543453 -0.54937124 0.13352405 0.51768976 0.52887887 -0.1894088
0.8099634 0.25228223 -0.39099368 -0.8386049 -0.5634908 0.6083825 0.21328296 -0.69284487
-0.1373845 -0.28344023 0.2482789 0.86643493 -0.32858154 0.10052461 0.18437065 -0.19021519
-0.61210865 -0.025297498 0.6921062 0.37209445 0.42040196 0.29892904 -0.24615714 0.2817494
-1.1231691 -1.3250391 -0.38759422 -0.1252089 0.02042115 0.042370588 1.016782 -0.9948251
0.46814048 -0.25806063 -0.7999784 0.36617294 0.9190818 -0.1702111 0.3695864 0.09453106
-0.99906564 -0.69753873 0.4234281 0.44585046 -0.8973753 0.84053653 0.17569034 0.025298009
-0.056541827 0.9313736 -0.012183391 -0.4249331 0.16668357 1.0118997 0.45276314 -0.22782393
0.52124995 0.43127725 -0.13998866 0.011775373 -0.25052732 0.17004357 0.47776008 0.24910392
0.67456174 0.0013906556 -0.2314694 0.21999973 0.13399312 -2.2193465 -0.03757723 0.7369519
-0.19100697 0.9701794 -0.32521826 0.006523715 -0.78078204 0.3790507 0.01485948 -0.12097395
-0.10850442 0.668122 0.25072184 0.060820047 0.09758604 0.77820575 0.086028054 0.48809403
-0.19102055 0.6649117 -0.019599777 0.2602989 0.065615065 0.6211039 0.42090636 0.53612447
-0.16419056 0.23290263 -0.34018052 0.013990151 -0.82214725 -1.0553395 -0.37783748 0.4695591
0.43650982 0.6629382 -1.5130025 -0.5785245 0.32156125 0.0017458085 -0.25288957 0.2938646
-1.1728078 -0.20292515 -0.14242616 0.10971553 0.4669876 -0.1212481 0.71055317 -0.16635609
0.81627053 -0.07035091 0.7601762 0.8302923 -0.28086862 -0.15251704 0.42503858 0.44633147
-0.30984268 0.047840904 0.30573666 0.0069506327 0.83947134 0.2212814 0.0263689 0.28584048
1.4684831 0.24135913 0.5945825 0.37103313 0.7708986 -0.19050942 -0.12109779 0.58512723
0.23869447 -0.44208074 -0.5772804 0.069518656 -0.045368306 -0.3410866 -0.29667282 0.16289599
1.0246394 0.12361341 0.70141184 0.031672023 0.64419097 0.98800415 0.20244251 -0.06281441
0.42320156 0.1283547 -0.9605544 0.24579461 0.29641807 0.09193782 -0.37512526 -0.40194154
0.53933203 0.49894956 -0.14081071 0.35999185 -0.19020045 0.514434 -0.38254374 0.52499676
0.3913969 0.4259198 -0.38529894 0.5911221 -0.3615436 -1.2771622 -0.11126834 0.3552489
0.044915996 0.48398685 -0.59054804 -0.17173661 -0.3770622 -0.78551453 0.2751711 0.22405826
0.055405214 0.5865009 0.59778756 -0.028785672 0.11038505 0.050104726 0.23394352 -0.4199511
-0.15030448 -0.4455962 -0.113385394 0.5073926 0.31123626 0.43377644 0.7924624 -0.40243924
0.28079632 -0.04668035 0.70426756 0.7869408 -0.16120775 -0.67758924 0.35096478 -0.24215892
-0.28211832 -0.41879573 0.6655529 0.435576 -1.5917673 -3.564974 -0.22852899 -0.14944044
-0.15153793 0.22362274 0.47663218 -0.09257472 0.47752225 -0.29461738 0.7652692 0.2428934
-0.20760228 0.09137086 0.11206103 -0.074305214 -0.01863154 0.30337676 0.6929405 0.66597646
-0.510978 0.113567166 -0.098108225 0.2351582 -0.12780996 0.31871313 0.9325519 0.6199578
00000000: ad8c 8d3f b27a b33f 0396 11bd 98a3 0cbf
00000010: 87ba 083e 5187 043f 9b64 073f 61f4 41be
00000020: c359 4f3f 232b 813e 5330 c8be d0ae 56bf
00000030: ef40 10bf f5be 1b3f d966 5a3e 485e 31bf
00000040: 86ae 0cbe 141f 91be d33c 7e3e aece 5d3f
00000050: d73b a8be d9df cd3d a9cb 3c3e c5c7 42be
00000060: 27b3 1cbf b33c cfbc df2d 313f 2a83 be3e
00000070: ed3e d73e 3a0d 993e 9e10 7cbe 7541 903e
00000080: 01c4 8fbf e29a a9bf c072 c6be c336 00be
00000090: 414a a73c c88c 2d3d ea25 823f dcac 7ebf
000000a0: 1cb0 ef3e 8620 84be 62cb 4cbf 057b bb3e
000000b0: f248 6b3f d24b 2ebe 6e3a bd3e 8099 c13d
000000c0: c4c2 7fbf e691 32bf 91cb d83e 8346 e43e
000000d0: 63ba 65bf 672d 573f 2be8 333e c53d cf3c
000000e0: 6798 67bd 806e 6e3f d89c 47bc d590 d9be
000000f0: 19af 2a3e ee85 813f 92d0 e73e ad4a 69be
00000100: a370 053f 5fd0 dc3e 3059 0fbe 7eed 403c
00000110: 1e45 80be e71f 2e3e f89c f43e 1915 7f3e
00000120: 14b0 2c3f a946 b63a 5006 6dbe 9c47 613e
00000130: 7e35 093e c609 0ec0 95ea 19bd e1a8 3c3f
00000140: 5597 43be ad5d 783f 0283 a6be e3c4 d53b
00000150: 55e1 47bf ef12 c23e 2d75 733c 31c1 f7bd
00000160: 9137 debd 0b0a 2b3f 9d5e 803e 711e 793d
00000170: 31db c73d 7e38 473f 7a2f b03d 76e7 f93e
00000180: e49a 43be a737 2a3f b68f a0bc e645 853e
00000190: 3161 863d aa00 1f3f 0a81 d73e 743f 093f
000001a0: 9221 28be 077e 6e3e 242c aebe f236 653c
000001b0: 3e78 52bf 5d15 87bf ea73 c1be 0d6a f03e
000001c0: 377e df3e 51b6 293f 11aa c1bf 2e1a 14bf
000001d0: ada3 a43e 9dd3 e43a be7a 81be 6c75 963e
000001e0: 911e 96bf 9ccb 4fbe 2ad8 11be 89b2 e03d
000001f0: 0019 ef3e ed50 f8bd d0e6 353f 4059 2abe
00000200: 1bf7 503f 2314 90bd e89a 423f 098e 543f
00000210: 03ce 8fbe 6d2d 1cbe a89e d93e 8f85 e43e
00000220: b3a3 9ebe d3f4 433d 8489 9c3e 22c2 e33b
00000230: 98e7 563f 9797 623e 9703 d83c af59 923e
00000240: 41f7 bb3f d926 773e 8f36 183f 0ef8 bd3e
00000250: 9c59 453f e714 43be 1e02 f8bd e6ca 153f
00000260: 536c 743e 6858 e2be a6c8 13bf cc5f 8e3d
00000270: 1ed4 39bd e7a2 aebe 80e5 97be 35ce 263e
00000280: 6227 833f 0729 fd3d ba8f 333f 86ba 013d
00000290: b3e9 243f d7ed 7c3f 174d 4f3e d7a4 80bd
000002a0: e0ad d83e 6a6f 033e e5e6 75bf 95b1 7b3e
000002b0: 1cc4 973e e549 bc3d 6b10 c0be 48cb cdbe
000002c0: aa11 0a3f 5176 ff3e af30 10be da50 b83e
000002d0: e8c3 42be f2b1 033f c6dc c3be 3066 063f
000002e0: 2d65 c83e 2912 da3e e745 c5be c753 173f
000002f0: 3e1c b9be 0d7a a3bf a8e0 e3bd 2fe3 b53e
00000300: d6f9 373d 20cd f73e 282e 17bf b9db 2fbe
00000310: 4c0e c1be 7b17 49bf 3ae3 8c3e 876f 653e
00000320: 94f0 623d ec24 163f 9b08 193f eecf ebbc
00000330: 8f11 e23d 9d3a 4d3d e48e 6f3e d503 d7be
00000340: 6be9 19be 2f25 e4be 9a36 e8bd 7be4 013f
00000350: 5c5a 9f3e f217 de3e d1de 4a3f 840c cebe
00000360: 89c4 8f3e e533 3fbd e14a 343f f474 493f
00000370: a513 25be 7d76 2dbf a8b1 b33e 82f8 77be
00000380: d071 90be 656c d6be ad61 2a3f d103 df3e
00000390: 08bf cbbf 8928 64c0 8103 6abe ea06 19be
000003a0: c22c 1bbe 5cfd 643e 2209 f43e d197 bdbd
000003b0: cc7d f43e 17d8 96be afe8 433f 0cb9 783e
000003c0: b195 54be a520 bb3d 4180 e53d 552d 98bd
000003d0: 2ca1 98bc 3354 9b3e 8c64 313f 6f7d 2a3f
000003e0: 74cf 02bf e795 e83d f7ec c8bd 50cd 703e
000003f0: 9de0 02be 5e2e a33e b9bb 6e3f 8eb5 1e3f

fc2.weight f4 [64, 256]
0.1075444 0.37998033 0.123984806 0.16502988 -0.07658363 -0.1726912 -0.37604433 -0.15716249
0.34005594 0.042720355 -0.111838736 -0.2074465 -0.14197573 -0.54860747 -0.19817093 -1.0527191
-0.45396733 -0.30165875 -0.7507283 -0.590668 -0.44106966 -0.8334307 -0.100951426 0.17069802
-0.3878509 0.21042646 0.35468042 0.6644938 -0.09955321 0.25414646 -0.36157247 0.23798533
-0.12530993 0.2519721 -0.16288778 0.69696635 -0.48314267 -0.79947776 0.004504465 -1.2266624
-0.6503026 0.5369425 -0.6744544 -0.003971769 0.20470469 -0.28057525 -0.6814903 -0.10748595
-0.01469145 -0.59489673 -0.18699932 -1.584215 0.26296562 0.56406194 -0.39667416 -0.76643354
0.022144318 -0.5484596 -0.9463243 -0.071422584 -0.1266428 -0.6996216 0.012274371 -0.69559544
-1.2597855 -1.1070342 -0.5194959 -0.0258563 -0.100334935 -1.2185041 0.36472863 -0.2853172
0.55694413 0.12126011 -0.020108858 0.33537075 0.0354505 -0.2678497 -0.19549997 0.5218201
-0.53423697 -0.09031171 -0.007137544 -0.80301857 0.039775215 -0.27292418 -0.05873484 0.43046024
0.06026081 -0.073991604 -0.043508276 -0.21457921 0.19112565 0.06357852 -0.99633336 0.14125226
-0.7554581 0.21723051 -0.24943441 -0.41791895 0.16147864 0.14426486 -0.17405707 0.12667999
0.13807952 0.43014088 -0.0801258 -0.21744666 -0.8662975 -0.027156347 -1.0002223 -0.23488154
0.057070736 -1.0283594 0.13627262 -0.42240867 -0.21564525 0.41404912 -0.027832828 -0.35779336
0.28890926 -0.5093216 -0.102472216 -1.3232083 0.028765174 -0.74728 0.37191227 0.1206762
0.38188466 0.022162952 -1.0013598 0.08164355 -0.1832101 -0.02643369 -1.047839 0.5910295
0.0529905 -0.00052319566 -0.07625923 0.023632742 -0.29199383 -0.041752513 -0.51032263 -0.7191444
0.27969152 -1.9107915 -0.51081455 -0.17628784 0.098799914 0.33517647 -1.088344 -0.37428775
0.18587774 -0.12529528 -1.1180063 0.011019761 -0.6314074 -0.37748188 -0.52526647 -0.5179806
-0.48213592 0.2726462 0.011266968 -0.45695972 -0.44028366 0.1313355 -0.41037396 -0.13017352
-0.52854216 -0.05410269 -0.10486713 0.07635889 -0.118153065 0.009195663 -0.3584538 -0.45316863
-0.19435549 0.6490981 -0.26279145 -0.25362512 -0.13541043 0.0987582 -0.18625957 0.5268667
-0.07338309 -0.1900697 -1.0442507 -0.940552 0.6409378 -0.45177305 0.16496713 -0.11589044
-1.4220974 -0.26622167 -0.27619413 -0.7109765 0.1325431 0.21136534 -0.8027312 0.2032826
0.8445333 -0.4209522 -0.65885293 -0.16862017 0.13031048 0.34763554 0.38630202 -0.34144637
0.13137303 -0.46919373 -0.32261005 0.09917328 -0.14186229 -0.10234362 -0.7773665 -0.5279255
-0.14001216 -0.5945421 -0.52272534 0.30174565 0.107230164 0.0076460545 -1.0533329 -0.052904487
0.6239459 0.07233937 -1.6300874 0.042896617 0.059978645 0.14521508 0.23319334 0.035305813
0.09973225 -0.43606955 -0.1250894 -0.02158237 0.00040620402 -0.5841789 0.4709382 -0.29538378
-0.13422449 0.52665585 0.16534238 0.10783994 -0.21630773 -0.3838998 -0.25669163 0.51086575
-1.0314628 0.21978824 0.16992284 0.107967116 0.061752506 -0.5250344 0.06023336 0.22660081
00000000: 3d40 dc3d c88c c23e bfeb fd3d 98fd 283e
00000010: e1d7 9cbd f6d5 30be e288 c0be 34ef 20be
00000020: d01b ae3e 8afb 2e3d b50b e5bd db6c 54be
00000030: 1662 11be 8a71 0cbf 52ed 4abe 80bf 86bf
00000040: 686e e8be 0473 9abe bb2f 40bf 0536 17bf
00000050: e2d3 e1be b75b 55bf 9fbf cebd 76cb 2e3e
00000060: 6594 c6be 097a 573e ac98 b53e 441c 2a3f
00000070: 8ee2 cbbd 7c1f 823e 0720 b9be 6db2 733e
00000080: 3f51 00be 7d02 813e 0ecc 26be 636c 323f
00000090: 7a5e f7be 93aa 4cbf 319a 933b 4603 9dbf
000000a0: 3b7a 26bf 1075 093f 0ba9 2cbf 9d25 82bb
000000b0: 1b9e 513e 8fa7 8fbe 2676 2ebf 9821 dcbd
000000c0: 68b4 70bc 274b 18bf c07c 3fbe 8fc7 cabf
000000d0: 6ea3 863e 5d66 103f e018 cbbe fd34 44bf
000000e0: 0068 b53c d967 0cbf 4f42 72bf 0146 92bd
000000f0: a6ae 01be 671a 33bf 721a 493c 8b12 32bf
00000100: a740 a1bf 4cb3 8dbf affd 04bf 97d0 d3bc
00000110: 677c cdbd f1f7 9bbf b6bd ba3e 1915 92be
00000120: e493 0e3f 3857 f83d 55bb a4bc b7b5 ab3e
00000130: 8b34 113d 9923 89be 2531 48be 0196 053f
00000140: c1c3 08bf 59f5 b8bd 0fe2 e9bb a092 4dbf
00000150: 56eb 223d b8bc 8bbe f293 70bd 4965 dc3e
00000160: 0ad4 763d e988 97bd bc35 32bd a7ba 5bbe
00000170: 71b6 433e 7535 823d b40f 7fbf 6fa4 103e
00000180: b465 41bf ad71 5e3e bc6b 7fbe 79f9 d5be
00000190: a85a 253e 2bba 133e 043c 32be 66b8 013e
000001a0: b864 0d3e 6d3b dc3e ff18 a4bd 56aa 5ebe
000001b0: acc5 5dbf fd76 debc 4907 80bf c984 70be
000001c0: 01c3 693d 48a1 83bf 0d8b 0b3e f345 d8be
000001d0: 1cd2 5cbe 3ffe d33e ac01 e4bc b130 b7be
000001e0: eaeb 933e e662 02bf f4dc d1bd e45e a9bf
000001f0: f1a4 eb3c be4d 3fbf 496b be3e 1525 f73d
00000200: 6386 c33e 148f b53c 8f2c 80bf bc34 a73d
00000210: 6e9b 3bbe 778b d8bc 971f 86bf b64d 173f
00000220: 910c 593d 1127 09ba cd2d 9cbd 7499 c13c
00000230: 3780 95be af04 2bbd 81a4 02bf d919 38bf
00000240: ba33 8f3e d194 f4bf bec4 02bf cd84 34be
00000250: 9c57 ca3d 409c ab3e db4e 8bbf a5a2 bfbe
00000260: bc56 3e3e 684d 00be d51a 8fbf 3a8c 343c
00000270: eaa3 21bf 4e45 c1be dd77 06bf 609a 04bf
00000280: 85da f6be 4898 8b3e 1799 383c a0f6 e9be
00000290: dc6c e1be d07c 063e 891c d2be 354c 05be
000002a0: 8a4e 07bf c89a 5dbd 94c4 d6bd 0d62 9c3d
000002b0: 3cfa f1bd 68a9 163c 4287 b7be b805 e8be
000002c0: 2005 47be 4b2b 263f 9a8c 86be 27db 81be
000002d0: 08a9 0abe bd41 ca3d d4ba 3ebe bce0 063f
000002e0: e049 96bd a2a1 42be 02aa 85bf 04c8 70bf
000002f0: 8014 243f cc4e e7be 25ed 283e f857 edbd
00000300: 4a07 b6bf 354e 88be 5169 8dbe 8e02 36bf
00000310: 61b9 073e 2870 583e cb7f 4dbf 5029 503e
00000320: 5633 583f 0c87 d7be 96aa 28bf c4aa 2cbe
00000330: 1c70 053e 49fd b13e 61c9 c53e 0fd2 aebe
00000340: a786 063e 293a f0be 252d a5be 5c1b cb3d
00000350: 5944 11be 8899 d1bd 7e01 47bf 2026 07bf
00000360: 595f 0fbe e933 18bf 54d1 05bf 687e 9a3e
00000370: 7d9b db3d c18b fa3b 9dd3 86bf 60b2 58bd
00000380: ebba 1f3f aa26 943d b4a6 d0bf 5db4 2f3d
00000390: 2bac 753d 43b3 143e 3cca 6e3e d49c 103d
000003a0: 6c40 cc3d 8244 dfbe 7017 00be 83cd b0bc
000003b0: c8f7 d439 c08c 15bf d01e f13e 8b3c 97be
000003c0: 2572 09be ebd2 063f 834f 293e 30db dc3d
000003d0: c67f 5dbe 848e c4be 166d 83be 19c8 023f
000003e0: f906 84bf 2b10 613e 4100 2e3e dd1d dd3d
000003f0: 32f0 7c3d a868 06bf 41b7 763d 0b0a 683e

fc2.bias f4 [64]
0.77470267 0.14602837 -0.034770265 -0.09652248 0.36692867 -0.08972871 0.44830242 -0.14832349
0.11799223 0.013928128 -1.4041923 1.4292485 0.8492484 0.36629543 -0.08426216 -0.15266545
0.22525834 0.6994302 -0.11894702 0.040090572 0.15946446 1.6187352 0.9567633 1.3484144
0.37827486 1.2602823 -0.09756605 1.099029 0.33499116 -0.2578107 -0.098776385 0.6625167
0.16354929 1.1445317 -0.17707242 0.063885726 0.091553345 -0.22713207 0.5848918 0.10787822
-0.11464451 -0.0074040033 -0.62093043 0.5637811 0.9702916 0.26818502 -0.12099801 1.6370784
-0.06928153 1.8876319 -0.32487857 -0.1160109 -0.49060115 1.3949618 0.97921187 -0.011356561
-0.15808219 -0.10721525 1.0977373 -0.06835381 0.09199814 0.3849831 0.055896275 -0.27850488
00000000: ea52 463f 7688 153e 446b 0ebd 94ad c5bd
00000010: 13de bb3e b0c3 b7bd e587 e53e 1de2 17be
00000020: e9a5 f13d ce32 643c 93bc b3bf 9df1 b63f
00000030: 5868 593f 138b bb3e a491 acbd 5554 1cbe
00000040: 1faa 663e dc0d 333f 7f9a f3bd 0336 243d
00000050: a74a 233e b732 cf3f 71ee 743f d898 ac3f
00000060: 3ead c13e ee50 a13f b6d0 c7bd fbac 8c3f
00000070: f683 ab3e c4ff 83be 464b cabd b29a 293f
00000080: 7779 273e 0480 923f 7952 35be 85d6 823d
00000090: 5280 bb3d 4f95 68be 78bb 153f 42ef dc3d
000000a0: beca eabd 489d f2bb 4cf5 1ebf f553 103f
000000b0: 0865 783f 8c4f 893e cecd f7bd c98b d13f
000000c0: 7ae3 8dbd ec9d f13f 7c56 a6be 1f97 edbd
000000d0: 1330 fbbe 1c8e b23f a1ad 7a3f df10 3abc
000000e0: 4ce0 21be ab93 dbbd a882 8c3f 15fd 8bbd
000000f0: 8569 bc3d 811c c53e 7ef3 643d 3198 8ebe

fc3.weight f4 [16, 64]
-0.23750556 -0.18098322 -0.0144548975 0.11699368 -0.024168698 0.0061024046 -0.033675723 0.030247394
0.11128474 -0.43815452 -0.09397864 0.02077792 -0.5546334 0.01045569 0.12859993 0.07709243
0.059275795 0.065772034 -0.08801737 0.21810783 0.09270776 0.026017942 0.055881668 -1.621234
-0.25195634 0.036436133 0.026268756 -0.12877873 -1.0182078 0.073162355 0.036927503 -0.17977796
-0.22577247 -0.03097681 0.22482955 0.20606975 0.10508514 -0.06826873 0.032286897 -0.23232597
-0.060604416 -0.14872998 0.056933153 -0.5804872 0.06863769 -0.5852517 0.009955929 -0.041238256
0.06948503 0.11423899 0.16865401 0.09278214 -0.2184517 0.031484917 0.017055478 0.05944747
-0.6820941 0.09842859 -0.014036438 0.024850393 -0.61005026 0.12535138 0.36933663 -0.35323083
0.19203442 0.2628915 0.01867719 -0.052041177 0.23440231 -0.12215602 0.05344577 -0.017926507
-0.67715496 -0.057343952 0.03035842 -0.16620216 0.28716218 0.1391776 -0.02771453 0.09775264
-0.047089823 -0.0045719673 -0.018939268 -0.11513346 -0.35410503 0.105341785 -0.033142846 -0.1215826
-0.5508131 0.027095053 -0.020590141 0.13586555 1.0213397 -0.15047505 -0.13770206 0.13438122
0.37877306 0.00802978 -0.5283258 -0.10119908 -0.021477971 -0.15274452 -0.05065662 -0.28414863
-0.01955971 0.12928745 0.42767838 0.6085355 -0.0046239397 0.25853834 -0.5606657 0.015438008
0.01741027 0.0009109059 -0.0065629394 0.07170582 0.41294053 0.043042243 -0.0547377 0.082989305
0.20262472 -0.05479701 -0.06805234 0.08017547 0.26580766 -0.11030002 0.12707525 -0.12627916
-0.022643624 -0.07724923 0.017170563 -0.017009705 0.053975556 0.07723522 -0.11892881 -0.074286535
-0.11374697 0.12728174 -0.15575811 0.020977449 -0.091537885 -0.011164359 -0.06529866 0.05143866
-0.1371198 -0.11601594 0.08810212 -0.10239092 -0.1783195 -0.03290821 -0.14782858 -0.046361692
0.010230413 0.029753719 -0.14310607 -0.11377582 0.109836996 0.06268409 0.08796699 -0.14387234
-0.1254854 -0.07883525 -0.13322757 -0.022829518 -0.020655306 -0.10730179 -0.033088755 0.06892125
-0.11817284 0.009808809 -0.121788606 -0.03163771 0.111912884 0.08396131 -0.02176327 -0.1524159
0.10259876 -0.10157795 0.076388866 -0.09057492 -0.058484375 -0.13667794 -0.09983887 0.057044372
-0.078801 -0.082276165 -0.1914018 -0.0674938 -0.036141988 -0.107136495 -0.13836141 0.011237534
-0.23401092 -0.19160753 -0.049688872 -0.035777185 -0.23448218 -0.07204692 -0.17722039 0.33018363
-0.2634016 0.296748 -0.18047415 0.23068805 0.014926267 -6.388453e-05 -0.04253466 -0.032919463
0.09044274 0.049568597 0.046485182 -0.21424372 0.01472625 0.08874587 0.027297687 0.0788627
-0.021898739 0.16268717 0.08443046 -0.051598303 -1.7112669 0.58779246 -0.01584137 -0.15681933
-0.051229656 -0.21982858 0.36341944 -0.19839807 -0.18633726 -0.10574641 -0.008398159 0.037230395
-0.0029590074 0.013492446 0.041718613 -0.14600313 0.120813765 -0.53325236 0.037834805 0.17916964
-0.030422993 0.13265428 0.30724627 0.08668145 0.08003424 0.01962303 0.088553965 0.094161905
-0.350438 -0.0043018153 -0.05558835 0.05709349 -0.11081317 0.008727183 -0.2695072 -0.06002421
00000000: a834 73be aa53 39be 3cd4 6cbc 629a ef3d
00000010: 6ffd c5bc aef6 c73b 8eef 09bd 62c9 f73c
00000020: 41e9 e33d ca55 e0be e077 c0bd 7536 aa3c
00000030: 74fc 0dbf 584e 2b3c b3af 033e a3e2 9d3d
00000040: 2dcb 723d 7db3 863d 7342 b4bd a957 5f3e
00000050: 91dd bd3d 9423 d53c 2de4 643d 9984 cfbf
00000060: 6c00 81be 0e3e 153d 9331 d73c 92de 03be
00000070: a254 82bf 25d6 953d 4b41 173d b717 38be
00000080: e630 67be 14c3 fdbc b839 663e f303 533e
00000090: e136 d73d 7ad0 8bbd 443f 043d dce6 6dbe
000000a0: 563c 78bd ac4c 18be bd32 693d cf9a 14bf
000000b0: eb91 8c3d 0ed3 15bf 311e 233c 72e9 28bd
000000c0: 2b4e 8e3d 22f6 e93d a3b3 2c3e 9004 be3d
000000d0: cdb1 5fbe 54f6 003d eeb7 8b3c 317f 733d
000000e0: b89d 2ebf ee94 c93d 17f9 65bc 0d93 cb3c
000000f0: 412c 1cbf 1d5c 003e b119 bd3e acda b4be
00000100: aca4 443e b799 863e e800 993c 2129 55bd
00000110: 2907 703e ef2c fabd f4e9 5a3d 9cda 92bc
00000120: 075a 2dbf 7ee1 6abd 39b2 f83c e630 2abe
00000130: ec06 933e 9384 0e3e 9509 e3bc 8932 c83d
00000140: 42e1 40bd 71d0 95bb 8626 9bbc 17cb ebbd
00000150: 414d b5be 6fbd d73d cbc0 07bd 4c00 f9bd
00000160: 1602 0dbf 72f6 dd3c a8ac a8bc 5720 0b3e
00000170: 42bb 823f 2216 1abe c501 0dbe 3b9b 093e
00000180: 8bee c13e 578f 033c 5c40 07bf 7741 cfbd
00000190: 92f2 afbc 0f69 1cbe 517d 4fbd ee7b 91be
000001a0: af3b a0bc ee63 043e a9f8 da3e fcc8 1b3f
000001b0: 6b84 97bb 235f 843e ca87 0fbf b3ef 7c3c
000001c0: fc9f 8e3c dcc9 6e3a ed0d d7bb 80da 923d
000001d0: f16c d33e 104d 303d a334 60bd 4cf6 a93d
000001e0: db7c 4f3e d472 60bd 065f 8bbd 0933 a43d
000001f0: f117 883e fae4 e1bd 0420 023e 534f 01be
00000200: 1f7f b9bc d834 9ebd 48a9 8c3c f057 8bbc
00000210: 7915 5d3d 802d 9e3d f390 f3bd 8a23 98bd
00000220: 2cf4 e8bd 2556 023e 0e7f 1fbe e6d8 ab3c
00000230: 3778 bbbd b7ea 36bc 4ebb 85bd 58b1 523d
00000240: 2269 0cbe c499 edbd e26e b43d 55b2 d1bd
00000250: 6399 36be c2ca 06bd 6060 17be c2e5 3dbd
00000260: 769d 273c 12be f33c 668a 12be 4c03 e9bd
00000270: 38f2 e03d 8460 803d 0a28 b43d 4553 13be
00000280: 3f7f 00be 6074 a1bd cf6c 08be f804 bbbc
00000290: 5135 a9bc 0ac1 dbbd 1388 07bd 9626 8d3d
000002a0: 9a04 f2bd 20b5 203c 4e6c f9bd 8b96 01bd
000002b0: 9532 e53d e8f3 ab3d e348 b2bc ea12 1cbe
000002c0: 4c1f d23d 1a08 d0bd c471 9c3d 587f b9bd
000002d0: 508d 6fbd 4df5 0bbe 5278 ccbd 5ca7 693d
000002e0: 6b62 a1bd 6880 a8bd d5fe 43be 303a 8abd
000002f0: 9f09 14bd 616a dbbd 9dae 0dbe a21d 383c
00000300: 8fa0 6fbe c434 44be 8f86 4bbd 198b 12bd
00000310: 191c 70be 568d 93bd 4379 35be d40d a93e
00000320: 93dc 86be 5bef 973e 37ce 38be 7d39 6c3e
00000330: 4d8d 743c bff9 85b8 d338 2ebd 8fd6 06bd
00000340: 0b3a b93d 7108 4b3d 3f67 3e3d b562 5bbe
00000350: 5f46 713c 65c0 b53d 669f df3c c482 a13d
00000360: fc64 b3bc 7797 263e e1e9 ac3d be58 53bd
00000370: cb0a dbbf 9179 163f c3c5 81bc 3f95 20be
00000380: 30d6 51bd be1a 61be 1d12 ba3e dd28 4bbe
00000390: 32cf 3ebe 9391 d8bd 6f98 09bc e67e 183d
000003a0: e8eb 41bb 6c0f 5d3c 23e1 2a3d d881 15be
000003b0: 356d f73d 3a83 08bf abf8 1a3d 3f78 373e
000003c0: a439 f9bc 86d6 073e 624f 9d3e 0b86 b13d
000003d0: fee8 a33d 7ac0 a03c c85b b53d f5d7 c03d
000003e0: 9c6c b3be 3ef6 8cbb 9cb0 63bd ddda 693d
000003f0: 04f2 e2bd 75fc 0e3c d9fc 89be f2db 75bd

fc3.bias f4 [16]
1.325246 0.10111491 -0.1541284 2.2334223 -0.43438834 0.9133589 0.95953697 -1.7268357
1.4693382 0.4107743 0.58562046 1.5360937 0.6487867 1.0922812 0.3057312 0.75367796
00000000: a9a1 a93f 5515 cf3d d6d3 1dbe 64f0 0e40
00000010: 2668 debe e4d1 693f 37a4 753f f408 ddbf
00000020: 4613 bc3f 0251 d23e 39eb 153f b89e c43f
00000030: e316 263f dfcf 8b3f cd88 9c3e 0af1 403f

fc4.weight f4 [4, 16]
0.0008326439 0.050445564 -0.17209074 0.22728454 0.3201884 -0.15348016 0.089448236 0.08631104
-1.0430988 -0.104840085 -0.1380767 -0.05734307 -0.0073310365 0.035123903 0.014276208 -0.27217576
0.017463243 0.049320318 0.08696851 0.23213568 -0.052904494 0.021549884 -0.1604923 0.09084693
0.029006535 -0.025153298 0.055497017 -0.095328234 -0.5114813 0.028456574 0.00073359814 -0.016385693
-1.015808 -0.041289877 -0.00095588336 0.19922829 0.20311368 -0.27599254 0.027787285 0.057554018
-0.003629376 -0.24548429 -0.015398434 -0.07075879 -0.009400734 0.2293362 -0.4808304 -0.004334285
0.017320504 -0.3965784 0.08424477 0.2632006 -0.5184026 -0.019776076 -0.025440168 0.2804745
0.02800612 0.039953277 -0.04108984 -0.0054603503 0.016225751 -0.06739216 0.057858665 0.015996547
00000000: c945 5a3a 02a0 4e3d 8e38 30be 47bd 683e
00000010: bcef a33e e729 1dbe a330 b73d d8c3 b03d
00000020: 4384 85bf 66b6 d6bd fa63 0dbe 91e0 6abd
00000030: 3139 f0bb 15de 0f3d c2e6 693c 9f5a 8bbe
00000040: 130f 8f3c 1a04 4a3d 8c1c b23d fab4 6d3e
00000050: 62b2 58bd 6289 b03c 1858 24be f50d ba3d
00000060: 1d9f ed3c 4a0e cebc d750 633d 733b c3bd
00000070: 70f0 02bf c31d e93c f04e 403a 4a3b 86bc
00000080: ff05 82bf 931f 29bd 3f94 7aba 8002 4c3e
00000090: 08fd 4f3e e54e 8dbe 29a2 e33c c3bd 6b3d
000000a0: d3da 6dbb 3c60 7bbe b749 7cbc fce9 90bd
000000b0: 8905 1abc 1cd7 6a3e 672f f6be 9e06 8ebb
000000c0: bbe3 8d3c 530c cbbe 8688 ac3d 3bc2 863e
000000d0: 08b6 04bf 7001 a2bc e667 d0bc 5b9a 8f3e
000000e0: 176d e53c 0ca6 233d d24d 28bd bdec b2bb
000000f0: deeb 843c e704 8abd 35fd 6c3d 310b 833c

fc4.bias f4 [4]
0.9426473 0.9309967 0.7619951 0.88991463
00000000: 5551 713f cd55 6e3f 1c12 433f 72d1 633f
