dqn_model_1000.pth (torch, 87381 bytes, 8 tensors)

fc1.weight f4 [256, 13]
000000 fc 91 0b 3f 67 15 9d bd 0c 60 2b 3e 65 16 35 be
       0.5451963 -0.07670098 0.16735858 -0.17684324
000010 4c 6b df be e7 d6 97 be 61 d5 79 be b8 37 84 bd
       -0.4363655 -0.29656145 -0.24397804 -0.0645594
000020 2a b2 12 bf 8d 7a 1a ba 04 b7 c6 be c2 da 7c 3d
       -0.57303107 -0.0005892895 -0.38811505 0.06173206
000030 24 1c ab 3d 36 43 0f 3f 6c 5b f3 bd 9b 5f 2f 3f
       0.08354977 0.5596193 -0.11882672 0.6850526
000040 eb 47 b1 3e e9 94 85 bd 1f 89 f5 bd 00 3d 3b bd
       0.34625182 -0.06522543 -0.119890444 -0.04571247
000050 21 db b3 be ad 0c 8e 3d be 11 f8 ba 49 43 eb 3d
       -0.3512812 0.069360115 -0.0018926186 0.11487443
000060 7c 79 87 be fd 75 69 be bf 8a c6 be 85 2a 7d be
       -0.26459873 -0.22798915 -0.3877773 -0.24723251
000070 c4 bf 64 3e 8e cf d9 3d fe ae 7b 3e e4 e2 2c 3e
       0.22338778 0.10635291 0.24578473 0.16883427
000080 46 79 0f c0 61 45 5e bf 28 3f ec bf 9b 82 9d 3e
       -2.241777 -0.86824614 -1.8456774 0.30763707
000090 42 5a ca be ab 4f 92 bd 1b a8 ff bd 62 e0 ab 3e
       -0.39521986 -0.07144102 -0.124832354 0.33569628
0000a0 d8 6e 6f bf 6c a3 5a 3e 15 0f cd be c1 dc 0f bf
       -0.9352851 0.21351403 -0.4005057 -0.5619622
0000b0 2d 75 ca bd fc f0 5f be dd 1b b1 be cd 09 1c 3f
       -0.09885631 -0.21869272 -0.3459157 0.60952455
0000c0 eb 12 d8 be d8 fa a6 bd 1c 90 fe 3d a2 c1 1c 3d
       -0.42201933 -0.081533134 0.124298304 0.0382706
0000d0 0e 30 81 3c 92 f9 84 be 20 e9 f7 3e 50 fc 1e bd
       0.015769985 -0.25971657 0.48420048 -0.038814843
0000e0 dd 8e 33 bf 84 fd 07 3e f7 f3 a0 3e 3e 9d 2d be
       -0.7013987 0.13280302 0.3143613 -0.16954514
0000f0 df 1f a3 be 6b 51 eb 3e 59 1f 93 bf fd 8c 50 bf
       -0.31860253 0.45960554 -1.1493942 -0.8146513
000100 ab 80 0b bf 32 85 44 bd cf 25 58 3f 6f 82 d1 bc
       -0.54493207 -0.047978587 0.8443269 -0.02557489
000110 d4 7f 6e be 2d a1 9e 3d 91 f6 96 bf b5 e2 98 3d
       -0.2329095 0.077455856 -1.1793996 0.07465116
000120 bb e4 c4 bd 7a 05 68 be 23 17 f3 bd e8 be af bf
       -0.096139394 -0.22658339 -0.11869647 -1.3730135
000130 27 62 ad 3e 25 93 b1 be 57 50 02 bf 5c e1 b9 3e
       0.33863947 -0.34682575 -0.5090384 0.36304748
000140 b0 aa 24 bf c1 8d 05 3e 6e fc 14 bd fb a7 8b be
       -0.6432295 0.13042356 -0.03637355 -0.27276596
000150 4e 49 0e bf 50 b3 16 3e f9 12 8b 3e b2 8a 56 3c
       -0.55580604 0.1471684 0.27162912 0.013094591
000160 dc 1f ba 3e cb 98 31 c0 18 c3 9c bc 36 11 d1 3e
       0.36352432 -2.7749507 -0.019135997 0.40833443
000170 6e 02 7a be eb 73 ad 3d aa fd e7 3e 74 76 f4 3d
       -0.2441499 0.08469375 0.45310718 0.11936656
000180 fc 14 c2 be 6a bd c1 bf 47 bb 00 3e 8b ae 2d c0
       -0.37906635 -1.513593 0.1257144 -2.7137783
000190 cd 3c 05 bf 2c 88 01 3f b0 2b 64 3e 6c 89 1b bf
       -0.520459 0.50598407 0.2228229 -0.60756564
0001a0 61 c8 9f bf 79 8d c8 3e 06 4a 7e 3e bf 65 a1 3c
       -1.2483026 0.39170435 0.24832925 0.019701837
0001b0 db 44 36 be e6 87 d3 bd 35 09 a8 3d 38 f5 99 3e
       -0.17799704 -0.10328655 0.08204881 0.300699
0001c0 18 2a 17 bd b6 20 28 bf de b2 80 3d ae a2 14 bf
       -0.036905378 -0.6567491 0.06284116 -0.5806073
0001d0 31 3f 02 bf 36 03 5a 3f e5 ed 57 3f 2a f4 86 bf
       -0.5087767 0.8516115 0.84347373 -1.0543263
0001e0 3d 4f d3 bd a1 e1 fa 3d 4b 79 5c bf c3 52 aa bf
       -0.10317848 0.122500665 -0.8612258 -1.3306507
0001f0 6d ba 3b 3e a7 05 af bf 6f 06 ff bc 8e b6 2d be
       0.18332835 -1.36736 -0.031130997 -0.1696417
000200 00 ba dd be cb fc f7 be 5c 0d 9f 3f 68 8b a4 bf
       -0.4330597 -0.48435053 1.2425952 -1.2855043
000210 ce de b2 bf de c1 c0 be 5f 71 96 bd 39 42 8f ba
       -1.3974245 -0.3764791 -0.073458426 -0.001092977
000220 93 84 cd bd 2e 9d b2 3e 82 fe 23 bc 98 f5 21 bd
       -0.10035052 0.34885544 -0.01000941 -0.039540857
000230 30 ee 34 be b1 b8 30 be 59 ec b7 bd b2 a5 39 bf
       -0.17668986 -0.17257954 -0.089806266 -0.72518456
000240 c5 39 ef bd 25 10 59 3d 7c 59 aa be 24 66 05 bf
       -0.116809405 0.052993912 -0.33271396 -0.5210898
000250 bc 38 fe bc c3 a5 90 3e 60 90 06 be 39 23 0c be
       -0.031032912 0.28251466 -0.13141012 -0.13685311
000260 fc c4 5a 3e c3 00 c5 be c1 52 65 3e 10 2d c2 bd
       0.21364206 -0.38477144 0.2239485 -0.09481251
000270 38 3d 14 3f c4 d1 3b 3d 4b 0a 18 bf 54 dd 95 be
       0.5790591 0.045854345 -0.59390706 -0.29270422
000280 cf 34 f6 3d 6d 02 23 3e 03 da 16 bc 55 e8 dd bf
       0.12021791 0.15918894 -0.0092072515 -1.7336527
000290 90 8e 5f be f9 f1 8b be bf 26 34 bf b4 91 cb bd
       -0.21831727 -0.27333048 -0.7037162 -0.099399
0002a0 39 57 26 3e c5 10 88 be a0 8e ae be b2 99 d6 bf
       0.1624421 -0.26575294 -0.3409319 -1.6765654
0002b0 db 0e 56 3f 59 84 80 bd 8c a0 62 3e 01 c8 2a 39
       0.8361642 -0.06275243 0.22131556 0.0001628697
0002c0 ef 29 a3 bd e1 e5 29 be 48 8a 15 3d e9 8d 89 3d
       -0.079669826 -0.16591598 0.03650883 0.0671652
0002d0 5f 52 c8 3c d7 0b 99 be 78 0c 5e be 74 19 53 3f
       0.02445334 -0.29891846 -0.21684444 0.82460713
0002e0 20 af 35 bf 3f 1b b3 3e 8d 78 94 3c 6a ab 0f be
       -0.70970345 0.34981725 0.01812389 -0.14030233
0002f0 d9 68 12 bf b8 05 9b be 0d 51 a6 be 0c 2e 86 3e
       -0.57191235 -0.302778 -0.32483712 0.26207006
000300 2a 53 6a bf 3c eb b8 bf 39 b3 2f 3e a2 ae a6 bb
       -0.9153315 -1.4446788 0.17158212 -0.005086736
000310 95 d7 41 bf b1 76 a5 bf e7 37 0c 3f 18 a7 5f 3e
       -0.7571958 -1.2926847 0.547728 0.21841085
000320 4f e5 2a 3e c3 72 cc be e9 b1 b2 3d ac 8e b5 be
       0.16689037 -0.39931306 0.0872534 -0.35460413
000330 9b 5d bb 3d 04 b1 1c 3e 5b b5 fe bd 02 70 0b be
       0.09148713 0.15301901 -0.124369346 -0.13616946
000340 b3 b9 d8 bf e9 51 ef 3e 4f 6b 82 bf 89 1c b2 bf
       -1.6931671 0.4674218 -1.0188998 -1.3914958
000350 95 1f f3 bc 17 46 ad bd 1a c7 aa bf d3 4a b8 3e
       -0.029678145 -0.08460634 -1.3342011 0.35994586
000360 81 3b 89 bc 17 be 06 bd ae 17 02 be ae be 85 bd
       -0.016752006 -0.032896128 -0.12704346 -0.0653051
000370 9c 91 82 be 18 e4 9c 3e 60 ac 15 bf bd 3c 09 bd
       -0.25501716 0.30642772 -0.5846615 -0.03350519
000380 eb 3f 04 bf 1a 4a 08 bd 21 3b bd bd 9d a2 08 c0
       -0.5166003 -0.033273794 -0.092397936 -2.1349251
000390 db 36 49 bf c0 9d 32 bf 77 84 06 bf fc ed 64 3f
       -0.7859933 -0.6977196 -0.52545875 0.89425635
0003a0 e6 f1 8b 3e 28 4d 2a 3e 7b 57 47 3f c0 76 95 bf
       0.2733299 0.16630995 0.7786786 -1.1676865
0003b0 82 da 32 bd 1f 33 a5 be df 38 4e be 43 77 18 bc
       -0.043665417 -0.32265565 -0.20138882 -0.009305778
0003c0 22 ce c4 bf 5f 8d c2 3d 82 13 24 3f f7 ab 39 be
       -1.5375407 0.09499621 0.64092267 -0.18132006
0003d0 53 8a 28 3c 13 27 a7 bd fd d3 21 be 4b 04 20 c0
       0.010286885 -0.0816175 -0.15803523 -2.500262
0003e0 cc e6 a9 3f 8e 8c 3d 3f 30 93 86 c0 f8 73 af 3d
       1.3273559 0.74042594 -4.205467 0.08567041
0003f0 b3 41 15 3d 7d 3c 2f 3d 0a 74 22 3e 44 d8 ca 3c
       0.03643961 0.042782295 0.15864578 0.024761327

fc1.bias f4 [256]
000000 b2 7a 6f 3f 6d 25 ab 3f 8c d7 e6 3d bd 7a f1 be
       0.93546593 1.3370796 0.11271581 -0.47163954
000010 ff cb 51 3e 69 87 c6 3e 07 01 cd 3e 86 39 2b be
       0.20487975 0.38775185 0.40039846 -0.16721162
000020 00 6b 3c 3f 95 e9 5c 3e 16 d7 af be 59 e9 18 bf
       0.7360077 0.2157348 -0.34343785 -0.5973106
000030 1b a1 d4 be 1a 7f 12 3f f3 4b 39 3e aa 8a 10 bf
       -0.41529164 0.5722519 0.18095379 -0.56461585
000040 da 90 4c be 6a 17 c4 be 24 4d 89 3e 45 41 34 3f
       -0.19977131 -0.38299114 0.26816666 0.70412093
000050 af 6b 23 be 2b 74 3b 3e 77 85 95 3e 86 43 58 be
       -0.15959047 0.18306033 0.29203388 -0.21119508
000060 d9 c7 0d bf 71 f6 30 be 03 0f 23 3f 9f 1f 08 3f
       -0.5538307 -0.1728151 0.6369478 0.5317325
000070 29 23 c9 3e e7 58 8e 3e 93 29 8a be 71 37 65 3e
       0.39284638 0.27802202 -0.26984844 0.2238443
000080 79 d2 67 bf 76 53 8d bf 1b 41 d1 be 46 15 9a be
       -0.9055553 -1.1041095 -0.40869984 -0.30094355
000090 8a 69 b1 bc 93 de c5 3d e1 e8 87 3f 09 c5 54 bf
       -0.02165677 0.09661593 1.0617944 -0.8311315
0000a0 60 f1 a7 3e cf 45 4f be 03 bd 23 bf a4 e6 3a 3e
       0.32801342 -0.20241474 -0.63960284 0.18252045
0000b0 af 45 49 3f 12 ae 98 be 1e 51 1b 3e f7 7c 8a 3a
       0.78621954 -0.29820305 0.15167663 0.0010565807
0000c0 5a 7d 6a bf 9b 59 06 bf d5 e8 d6 3e de 7b 8a 3e
       -0.9159752 -0.5248048 0.41974512 0.27047628
0000d0 2f 11 61 bf 33 92 49 3f c2 de 90 3e ed 21 3b 3e
       -0.87916845 0.7873871 0.2829495 0.1827466
0000e0 67 98 67 bd da 50 1b 3f 18 5d 23 3e 6f 46 09 bf
       -0.056541827 0.60670245 0.15953481 -0.536231
0000f0 13 17 36 3e fa 46 74 3f 07 e4 6d 3e 40 ba 74 be
       0.1778224 0.954208 0.23231517 -0.23899174
000100 17 3f f1 3e 4f 2a de 3e cb d6 cd 3c 1a b4 82 bd
       0.47118446 0.43391654 0.025126835 -0.06382008
000110 45 cc a0 be d4 96 9d 3e db 95 fe 3e e4 3e 60 3e
       -0.31405845 0.30779135 0.49723706 0.21898991
000120 72 ff 2b 3f 79 82 a2 bb 95 a2 86 be fa 83 bf 3e
       0.67186654 -0.004959401 -0.26295915 0.37405378
000130 bf 5c df 3d 49 f6 f1 bf 41 54 2a bd 66 cc 50 3f
       0.10906362 -1.8903285 -0.041584257 0.8156189
000140 99 08 ec bd 89 84 5a 3f fb 30 18 be ad 3f 13 3e
       -0.115250774 0.8535848 -0.14862435 0.14379759
000150 55 e1 47 bf ee a5 c0 3e 2d 75 73 3c 20 1a 47 be
       -0.78078204 0.37626594 0.01485948 -0.1944356
000160 ad 39 02 be 3f fe 15 3f 03 0e b9 3e 55 a4 e9 bb
       -0.12717314 0.58591074 0.36143503 -0.0071301856
000170 aa 62 34 3e 54 4f 21 3f 88 4f e6 3d 5c 41 88 3e
       0.17615762 0.6301167 0.11245638 0.26612365
000180 61 cc 37 be 08 40 2d 3f 68 25 0c 3b d4 76 6e 3e
       -0.17949058 0.6767583 0.00213846 0.23287517
000190 6d 9e e8 3d 6f 2a 26 3f eb 1b 83 3e b3 5c fa 3e
       0.11358342 0.649085 0.25607237 0.4889885
0001a0 cd ed 4f be 96 1f 41 3e 24 2c ae be 9f 77 50 3c
       -0.20305558 0.18859705 -0.34018052 0.012723832
0001b0 bf f6 2c bf f6 dc 33 bf ed ec a2 be c7 64 eb 3e
       -0.67564005 -0.70259035 -0.31821385 0.45975325
0001c0 9e 56 ff 3e fe a4 ac 3e 89 4e bb bf 2d f9 14 bf
       0.4987077 0.3371963 -1.4633342 -0.5819271
0001d0 d7 52 96 3e 22 f1 af bb be 7a 81 be f3 c1 a6 3e
       0.29360077 -0.0053693214 -0.25288957 0.32569847
0001e0 0c fe 5e bf 36 37 c2 bc 8e ab fb 3b 29 99 e8 3d
       -0.87106395 -0.023707967 0.007680363 0.11357338
0001f0 75 34 c2 3e ef 32 40 3c 14 20 0c 3f 77 50 85 be
       0.37930647 0.0117308935 0.5473645 -0.26037952
000200 05 70 45 3f 19 3a e4 3b fd 5b 19 3f 16 63 45 3f
       0.77124053 0.0069649336 0.5990599 0.7710432
000210 90 7f 8f be f7 df 37 be 8a 04 de 3e ee 15 0f 3f
       -0.2802701 -0.1795653 0.43362838 0.5589284
000220 d1 fc ca be 54 c9 30 3e d6 7b 46 3e 22 c2 e3 3b
       -0.3964601 0.172643 0.19383177 0.0069506327
000230 5a e6 50 3f 57 99 5b 3e 86 7d c4 3d 82 e1 19 3e
       0.8160149 0.21445213 0.09594254 0.1502743
000240 4e e4 9d 3f ef 78 43 3e e8 cb 21 3f 6f ea c7 3e
       1.2335298 0.19089101 0.6320176 0.39046046
000250 1b a1 46 3f 9d 68 13 be 57 2a 1c be 80 0a 1a 3f
       0.7758958 -0.14395376 -0.15250526 0.6017227
000260 28 24 c8 3e 8b fa b8 be 64 78 0a bf 6a db 0c 3e
       0.39090085 -0.3612865 -0.5408995 0.13755575
000270 e9 9d b2 bd f8 22 46 be d5 8c 85 be 2c e5 fa 3d
       -0.08721525 -0.19349277 -0.2608401 0.12250742
000280 32 f9 5f 3f f9 84 40 3e 59 72 1e 3f 40 48 2a 3e
       0.87489617 0.18800725 0.6189323 0.16629124
000290 1e c9 20 3f 96 b3 5e 3f ea 27 05 3f 3a 8e 53 3c
       0.6280688 0.86992776 0.5201403 0.012912327
0002a0 b9 9f 86 3e 3e c3 c4 3e a1 cd 27 bf 28 7f 88 3e
       0.26293734 0.38430208 -0.6554814 0.26659513
0002b0 b9 26 62 3e e5 49 bc 3d 48 08 bb be 23 6c 70 be
       0.22085084 0.09193782 -0.36529756 -0.23478751
0002c0 d5 6e ce 3e 2c 1e cd 3e 9e 9c 11 3b 47 fb 70 3e
       0.40318933 0.40062082 0.0022218595 0.23533355
0002d0 94 60 2a be 2c 06 14 3f 85 ee 30 be 1d 10 d3 3e
       -0.16638404 0.5782192 -0.17278488 0.4122323
0002e0 5f 64 ff 3e 2a 40 a2 3e a5 64 e0 be 7a 3e 0c 3f
       0.49881265 0.31689578 -0.43826786 0.5478283
0002f0 6e 79 5e be 19 25 89 bf 5b 00 d2 bc b5 0e 09 3f
       -0.21726009 -1.0714446 -0.025634935 0.53538066
000300 b5 4f 95 3e c6 d0 8d 3e 42 32 fa be 64 9d 44 be
       0.29162374 0.27698344 -0.4886647 -0.19200665
000310 8e 7f b8 be 30 c6 45 bf 75 30 97 3e fe 90 39 3e
       -0.36034817 -0.77255535 0.29529157 0.18121716
000320 fb 7f 66 3d d3 1c 14 3f 26 05 f9 3e 9b dc 2c bd
       0.056274395 0.5785648 0.4863674 -0.042202573
000330 ff d3 89 3b a2 d2 50 3b a0 e8 cd 3c 99 9f 0d be
       0.00420618 0.0031863828 0.025135338 -0.13830413
000340 fa 14 61 be 55 9c e3 be d0 e3 5d be 65 b7 f6 3e
       -0.21980658 -0.4445521 -0.21668935 0.48186794
000350 ab 1a c2 3e 5a eb 71 3e 77 dc 0e 3f 5c 6b c1 be
       0.3791097 0.23624936 0.5580515 -0.3777722
000360 78 2f 5f 3e 52 25 b1 3c 59 02 51 3f a7 66 3b 3f
       0.21795452 0.021624241 0.8164421 0.7320351
000370 15 61 2d be e1 c9 c9 be a0 4a d1 3e f9 34 5f be
       -0.16931565 -0.39411834 0.40877247 -0.21797551
000380 b2 b1 5c be bf e1 97 be ba e6 12 3f 5c 17 95 3e
       -0.2155216 -0.29664418 0.5738331 0.29119384
000390 59 17 c6 bf a1 14 42 c0 d4 50 28 be ea 06 19 be
       -1.5475875 -3.032509 -0.16437083 -0.14944044
0003a0 7f 69 60 be 58 16 98 3e d7 7f db 3e 87 f3 21 3e
       -0.21915244 0.29704547 0.42870972 0.15815555
0003b0 8a a1 57 3e 11 5b a5 3d 33 cf 1d 3f 58 e2 9f 3e
       0.21057716 0.0807401 0.61644286 0.31227374
0003c0 31 cf 38 be 20 84 07 3e 84 79 13 3e e9 d8 b1 bd
       -0.18047787 0.13233995 0.14401823 -0.086839505
0003d0 36 74 91 3d 76 1f 73 3e db 31 32 3f 33 bb 07 3f
       0.071022436 0.2374247 0.69607323 0.5302002
0003e0 7d fe 63 be e5 20 2c 3e 91 ca a4 be ed eb a8 3c
       -0.22265048 0.16809423 -0.32185796 0.02062031
0003f0 9d e0 02 be d8 f6 bf 3e b5 b5 6d 3f 93 7f 13 3f
       -0.12780996 0.37493014 0.9285539 0.5761654

fc2.weight f4 [64, 256]
000000 e9 ba 1f 3e 93 ce 8a 3e 72 07 8b 3d 6e aa d6 3d
       0.15598644 0.2711073 0.067885295 0.10481726
000010 46 47 a3 bd 9f ad 9b be 07 58 8b be 34 ef 20 be
       -0.07972579 -0.304059 -0.27215597 -0.15716249
000020 cb 2b cd 3d 8a fb 2e 3d 15 6b 22 3d 5b 90 a6 3e
       0.100181185 0.042720355 0.039652903 0.3253201
000030 a2 50 26 be 31 7f 8d be ff ef 63 be 21 73 6a bf
       -0.16241696 -0.27636102 -0.2225952 -0.9158192
000040 38 18 9a be bb dd 9d be 93 2d 57 be 14 d6 3d bf
       -0.30096602 -0.3083323 -0.21013479 -0.7415478
000050 1c e9 19 bf 93 e7 35 bf 9f bf ce bd 9c 49 55 bc
       -0.6012132 -0.7105648 -0.100951426 -0.013018038
000060 3e 04 09 bf 67 b9 0e 3e c3 f8 f0 3e 70 cc 11 3f
       -0.535221 0.13937913 0.4706479 0.5695257
000070 25 1e 17 bf 36 96 f9 3d 65 ac da be c3 f9 fd 3d
       -0.5903037 0.121868536 -0.42709652 0.12401154
000080 83 23 ac 3d e0 26 4d 3e 6d a7 e6 be 28 e5 32 3f
       0.08405211 0.20034361 -0.4504961 0.69880915
000090 19 06 cb be e5 76 00 bf 4a f5 9d 3d 9a 53 a2 bf
       -0.3965309 -0.5018142 0.07712801 -1.2681763
0000a0 5c 48 2d bf a6 9d dc 3e 27 0b 39 bf 39 ca 33 be
       -0.67688537 0.43089026 -0.7228264 -0.1755761
0000b0 cb 78 53 3e 6c f4 35 be 3e 1c 2a bf 1b 52 9b bd
       0.20651548 -0.17769021 -0.66449344 -0.0758402
0000c0 f2 e8 a8 3d 81 86 07 bf 13 1e 0c be 4f 54 75 bf
       0.08247556 -0.5293961 -0.13683347 -0.9583177
0000d0 4e d3 30 3e 15 4f 19 3f 1b ac 62 be df 95 02 bd
       0.17268106 0.59886295 -0.22135966 -0.03188121
0000e0 00 68 b5 3c 73 f5 b1 be af dc 8e bf 01 46 92 bd
       0.022144318 -0.34757575 -1.1161097 -0.071422584
0000f0 f4 23 e0 bd 74 a3 dd be 13 af a5 3d 2d 2c d8 be
       -0.109443575 -0.43288767 0.080900334 -0.42221203
000100 76 12 58 bf d8 c4 8a bf b5 a9 32 bf 97 d0 d3 bc
       -0.8440317 -1.0841322 -0.697902 -0.0258563
000110 67 7c cd bd 6b 44 08 bf 9f 6c 10 3e 8b 2b 87 be
       -0.100334935 -0.532294 0.14103936 -0.26400408
000120 9d 2f f8 3e 4f c6 34 be 67 c0 fa 3c 69 71 7b 3b
       0.48473826 -0.17653774 0.030609323 0.0038367158
000130 04 07 37 be 28 38 90 be 22 27 1c 3c 28 a0 0c bd
       -0.1787377 -0.28167844 0.009530814 -0.034332424
000140 41 f1 08 bf 5c 75 1d be 2a 7a b8 bc 61 37 04 bf
       -0.53493124 -0.153768 -0.02251919 -0.51647
000150 56 eb 22 3d e8 97 04 bf f2 93 70 bd 74 87 88 3e
       0.039775215 -0.5179429 -0.05873484 0.26665843
000160 5c 7a 4d bd a2 21 97 bd bc 35 32 bd 64 d0 4b be
       -0.05016552 -0.07379462 -0.043508276 -0.19903713
000170 48 da 62 3e f1 8d d6 3d 6b bb a7 be a3 98 7b 3d
       0.2215358 0.10476292 -0.32760176 0.061424863
000180 a2 81 57 bf 10 e8 c8 bd 23 96 1c be c7 e0 10 bf
       -0.8418218 -0.098098874 -0.15291648 -0.56592983
000190 a0 8c f1 3c a2 71 23 3e 1a e5 57 3d bb da 79 3e
       0.029486 0.15961316 0.052708723 0.24399845
0001a0 b0 b7 24 be 8f d0 d0 3e ff 18 a4 bd bf 11 8d bd
       -0.16085696 0.40784118 -0.0801258 -0.068881504
0001b0 66 73 2c bf 9a c1 85 3d d4 c6 62 bf 23 1f 98 be
       -0.67363584 0.06531067 -0.8858464 -0.29711255
0001c0 ff ec d6 3d 2f 6d 16 bf 91 ff 8f bd 17 aa 0e bf
       0.10494422 -0.5876035 -0.07031167 -0.55728287
0001d0 2d b5 4a 3e d0 62 97 3e ac 01 e4 bc 98 7a b5 be
       0.19795676 0.29567575 -0.027832828 -0.35445094
0001e0 e0 d2 17 be 2c e1 da be 34 9c cc be aa f6 97 bf
       -0.14826536 -0.42749918 -0.39962924 -1.1872151
0001f0 23 e4 a7 3e bd 2f 48 be 8c d9 05 3f dc ec 87 3d
       0.32791242 -0.1954946 0.52285075 0.06636974
000200 94 85 1d 3e 9a 78 94 3e e0 7a 6e bf d8 03 0c be
       0.15382987 0.28998262 -0.9315624 -0.13673341
000210 4a e2 0a bd 77 8b d8 bc c3 03 84 bf 4e ca d8 3e
       -0.033907212 -0.02643369 -1.0313648 0.42341846
000220 e3 69 ae 3d 11 27 09 ba cd 2d 9c bd 74 99 c1 3c
       0.0851629 -0.00052319566 -0.07625923 0.023632742
000230 49 db 5c be af 04 2b bd 97 50 40 bf 3b f8 12 bf
       -0.21568026 -0.041752513 -0.7512297 -0.5741002
000240 b1 98 c5 3e 70 7d a0 bf 85 76 2d bf 3e bf 3f be
       0.38593057 -1.253828 -0.6775897 -0.18725297
000250 84 1f a1 bc fb fd 0a bd 32 62 7d bf 95 53 1d bf
       -0.019668348 -0.03393362 -0.9897796 -0.6145566
000260 b5 f2 ba bd de f9 3e ba a6 05 41 bf 75 3e c7 be
       -0.09128324 -0.0007285158 -0.75399244 -0.38914838
000270 d0 75 07 bf 72 97 85 be da 74 8c be f4 4e 7e be
       -0.5291414 -0.26092106 -0.274329 -0.24834806
000280 21 b3 f3 be a9 43 c0 3e 7d e9 59 3a de 33 85 be
       -0.47597602 0.3755162 0.00083126855 -0.26016134
000290 4d 0a 81 be bb 27 c0 bd 6e ca cd be 35 4c 05 be
       -0.2520317 -0.09382578 -0.40193504 -0.13017352
0002a0 83 28 2e be f7 e9 7f 3d 44 c5 92 be 21 c4 24 be
       -0.17007641 0.062478986 -0.28666127 -0.16090442
0002b0 50 b8 a6 be 68 a9 16 3c 7a 22 0c be a0 c5 4e be
       -0.32562494 0.009195663 -0.13685027 -0.20192575
0002c0 64 6c 01 3e 1d df 50 3e 9a 8c 86 be d1 ba 92 bd
       0.12639004 0.20397611 -0.26279145 -0.07164539
0002d0 1c e1 9e bd 45 d7 d1 3d 05 c2 da be 54 1d ef 3e
       -0.0775778 0.102461375 -0.4272615 0.46702063
0002e0 77 fa 76 ba c5 50 31 be ae f4 4e bf 4b 6e e4 be
       -0.00094214774 -0.17315967 -0.808421 -0.44615397
0002f0 80 14 24 3f 20 b8 4c be fa 90 07 3e 12 da a8 be
       0.6409378 -0.19992113 0.13238898 -0.32978874
000300 c8 61 68 bf d5 0d 39 be ce 8c cf 3c 8e 02 36 bf
       -0.907742 -0.18071683 0.025335696 -0.7109765
000310 c0 77 1f bf d8 04 93 3e 8d 36 3e bf 9b 50 b2 3c
       -0.622921 0.28714633 -0.7430199 0.021766951
000320 0d bb 0f 3f 42 9d ad be 11 c4 0c bf a6 9c f1 3d
       0.5614479 -0.3390904 -0.54986674 0.117974564
000330 76 da e6 3e 51 20 94 3e 31 49 c2 3e 38 6f 45 bd
       0.45088547 0.28930905 0.37946466 -0.04820177
000340 dc cd ce 3b 12 62 22 bf 2c 61 02 be 26 04 11 bf
       0.0063111614 -0.63430893 -0.1273238 -0.56646955
000350 9f 8e 27 be 00 b7 3f be 02 97 dc be b7 18 a9 be
       -0.16363 -0.18722153 -0.4308396 -0.33026668
000360 04 e7 29 3d b6 4b a7 be 8e af 1d 3e 8b 4a 2d 3e
       0.04148008 -0.3267495 0.15399 0.16922967
000370 ab 85 08 bd 34 d4 61 bc e4 c7 6f be 8d 59 aa be
       -0.0333306 -0.013783503 -0.23416096 -0.33271447
000380 8d 1f 6d 3e 09 56 34 3e 3b 09 8f bf 34 f9 4e 3e
       0.23156567 0.17610945 -1.1174692 0.20212251
000390 a5 ac ab 3d 92 e2 3c 3e 52 15 98 3e d4 9c 10 3d
       0.08382539 0.18445805 0.29703766 0.035305813
0003a0 03 e0 13 3e 49 6f aa be 71 08 94 be 83 cd b0 bc
       0.14440922 -0.3328803 -0.2891269 -0.02158237
0003b0 45 23 51 3c be e4 15 bf 8f 6b 79 3e ef 36 98 be
       0.012764757 -0.5855216 0.24357437 -0.2972941
0003c0 26 75 0f bd 77 5e d0 3e f6 b2 6f bd 20 0e 47 bd
       -0.03502383 0.4069707 -0.05852028 -0.048597455
0003d0 26 5d 7c be 25 e2 ab 3b 88 65 0c bf b3 1a 42 3e
       -0.24644908 0.0052454644 -0.54842424 0.18955497
0003e0 46 72 e2 be ea 5f 5a bd e0 8f 07 be dd 1d dd 3d
       -0.4422781 -0.053314127 -0.13238478 0.107967116
0003f0 32 f0 7c 3d 34 14 21 bf 8e 6a 68 3e 4f f3 24 3e
       0.061752506 -0.6292145 0.22696897 0.1610844

fc2.bias f4 [64]
000000 8d 9e ae 3e 22 37 e7 3d 44 6b 0e bd 8f 70 89 bd
       0.3410534 0.112898126 -0.034770265 -0.06710922
000010 60 4a ba 3e b0 c3 b7 bd 02 7b ad 3e 80 7f 36 be
       0.3638487 -0.08972871 0.3388291 -0.17822075
000020 d4 8c bc 3d d7 d5 14 be cc 4a a4 bf 07 f9 8c 3f
       0.09206548 -0.14534698 -1.2835326 1.1013497
000030 5a 32 43 3f d1 66 a6 3e a4 91 ac bd 07 53 00 be
       0.76248705 0.32500318 -0.08426216 -0.12531672
000040 11 aa 18 3e 1b 84 37 3f 7f 9a f3 bd 7d 42 3f be
       0.14908625 0.7168595 -0.11894702 -0.18677707
000050 bb ae 06 3e fc a4 ac 3f d9 6b 3a 3f a7 3f 8a 3f
       0.13152592 1.3487849 0.7282081 1.0800675
000060 3f 17 9b 3e e6 d2 91 3f b6 d0 c7 bd d3 48 6b 3f
       0.30291173 1.1392486 -0.09756605 0.91907996
000070 6e bc 8b 3e 0a fc 8e be f8 ce 50 bd 95 57 39 3e
       0.27292198 -0.27926666 -0.05097863 0.18099816
000080 10 e4 8a 3e 97 23 60 3f 5f 01 85 bd 3d 9c a7 bd
       0.27127123 0.87554306 -0.06494402 -0.08184097
000090 eb 9f f0 bc 5a 98 a6 bd 10 3b 13 3f 99 63 49 3e
       -0.02937313 -0.081345275 0.57512 0.196669
0000a0 1a b1 b0 bd 48 9d f2 bb 6d ee f5 be c5 4a df 3e
       -0.086275294 -0.0074040033 -0.48033467 0.43611732
0000b0 08 36 62 3f 04 9d 77 3e 43 ec 2b bd 0a ac ba 3f
       0.88363695 0.2418099 -0.041973364 1.4583752
0000c0 7a e3 8d bd 19 22 cb 3f d3 d4 24 be 1f 97 ed bd
       -0.06928153 1.5869781 -0.16096811 -0.1160109
0000d0 70 e9 86 be 68 fb 9f 3f d7 db 64 3f df 10 3a bc
       -0.26349974 1.2498598 0.8939795 -0.011356561
0000e0 81 74 59 be 0c 1f ac bd e8 01 4a 3f 3a 31 49 3d
       -0.21235849 -0.08404359 0.7890916 0.04911921
0000f0 92 53 03 3e 28 27 66 3e ca db 2a 3d fe 43 ec bd
       0.12824848 0.22475874 0.041713513 -0.11536406

fc3.weight f4 [16, 64]
000000 52 3d 5c be 36 a7 c9 be 3c d4 6c bc e5 46 04 3e
       -0.21507767 -0.39385384 -0.0144548975 0.12917669
000010 19 a3 ea 3b ae f6 c7 3b d9 bc 13 bd e0 0d 2a 3e
       0.007160556 0.0061024046 -0.03606877 0.16606855
000020 4b e5 27 be e1 6e 0a be b8 f9 1a bd 88 0a 1b bc
       -0.16396062 -0.1351886 -0.037835807 -0.00946296
000030 3c 16 92 be 55 c2 9c 3c b3 af 03 3e a3 e2 9d 3d
       -0.28532588 0.019135633 0.12859993 0.07709243
000040 a0 08 1c 3d e7 e8 d8 3d 73 42 b4 bd 2e 43 f6 3d
       0.038094163 0.105912976 -0.08801737 0.12024532
000050 61 18 34 3e 4b 49 12 3d 34 f1 00 3d 8a ed 97 bf
       0.17587425 0.03571443 0.03148003 -1.1869366
000060 d5 20 93 be de b6 6a 3d 93 31 d7 3c d9 8f 7a bd
       -0.28735986 0.057303302 0.026268756 -0.06117234
000070 a4 dc 75 bf c5 a7 35 3e 2f a2 61 3d 5e 9d 78 be
       -0.96039796 0.1773978 0.05508631 -0.24278781
000080 52 36 06 bf ef 2a 1a be 6c fd cc 3d 9c 1a e0 3e
       -0.52426636 -0.1505544 0.10009274 0.437703
000090 2f 1b 8e 3e ba 18 93 bc 88 a9 0d be 99 bf e1 be
       0.27755114 -0.017956126 -0.13834202 -0.4409149
0000a0 56 3c 78 bd ac 4c 18 be 17 dd 16 be b8 2c 12 bf
       -0.060604416 -0.14872998 -0.14732777 -0.57099485
0000b0 8d 1f b8 3c 11 5a e8 be cc e6 b5 bc 11 0f 3f bd
       0.022475982 -0.45381215 -0.02220478 -0.046645228
0000c0 2b 4e 8e 3d bd 02 6f 3e 86 de aa bc 90 04 be 3d
       0.06948503 0.23340888 -0.02085806 0.09278214
0000d0 71 b6 1a bf 5c 41 cb ba da bd 91 bd 31 7f 73 3d
       -0.60434633 -0.001550715 -0.071162894 0.05944747
0000e0 d8 c2 24 bf dd dd b6 3d 1a 50 23 bd 50 c8 52 3d
       -0.6435981 0.08929036 -0.039871313 0.051460564
0000f0 93 3d ab be 0b f6 34 3e 2b 18 76 3e 0b dd 9c be
       -0.33445415 0.17671983 0.24032657 -0.30637392
000100 95 8c 73 3e 5e 00 b5 3e e8 00 99 3c a8 b8 0c bd
       0.23784097 0.35351843 0.01867719 -0.03435579
000110 ea 8c 6a 3e ef 2c fa bd d2 60 a6 3d b6 06 b9 3d
       0.22905317 -0.12215602 0.08123936 0.09034483
000120 98 ca 03 bf 91 d4 10 3d 75 54 05 3c fa 44 d1 bd
       -0.5148101 0.03535897 0.008137812 -0.10218234
000130 f2 10 63 3e 12 89 c8 3d 95 09 e3 bc 89 32 c8 3d
       0.22174433 0.09791769 -0.02771453 0.09775264
000140 c7 4a 62 bd 19 34 08 3c 86 26 9b bc 68 76 91 bd
       -0.055247094 0.008313202 -0.018939268 -0.07102662
000150 9b d5 02 be 01 34 f8 3d 93 18 bb 3c 79 81 12 be
       -0.12776797 0.12119294 0.022838866 -0.14307202
000160 01 da ce be 85 fc 5c bd a8 ac a8 bc 1a 0c 68 3e
       -0.404007 -0.05395176 -0.020590141 0.22660866
000170 cf 9e 94 3f 1d 4e a0 be 7d f8 91 bd 63 b1 d9 3d
       1.1610965 -0.31309596 -0.071274735 0.10629537
000180 81 60 f3 3e ac a4 fd bd 0d 98 5f be 46 6f 46 be
       0.47534564 -0.12384924 -0.21835347 -0.19378385
000190 14 83 52 3c 66 9e 88 3d 9d 7c af 3c 26 db 47 be
       0.012848634 0.06670837 0.021421725 -0.19517192
0001a0 49 19 af bc ee 63 04 3e 2b a3 0b 3e 66 5d 36 3f
       -0.021374362 0.12928745 0.13636462 0.71236265
0001b0 fc 35 dd bc 75 ca 21 3e a9 de c7 bd e3 3a 6e 3c
       -0.02700328 0.15799887 -0.09759266 0.014540407
0001c0 fc 9f 8e 3c 4f fc 99 3c c9 34 44 3d 80 da 92 3d
       0.01741027 0.018797068 0.047901902 0.07170582
0001d0 86 c6 18 3f 91 59 1f bc 0b df b0 bd 4c f6 a9 3d
       0.5967792 -0.009725944 -0.08636292 0.082989305
0001e0 22 94 a8 3e c1 39 cd bd 0e 48 b6 bc 39 aa 12 3d
       0.32925516 -0.10020781 -0.022251155 0.03580687
0001f0 30 6e da 3e 10 f6 8b bc cf 30 17 3d d4 67 6f be
       0.4266219 -0.017085105 0.036911782 -0.23379451
000200 1f 7f b9 bc d8 34 9e bd 48 a9 8c 3c f0 57 8b bc
       -0.022643624 -0.07724923 0.017170563 -0.017009705
000210 79 15 5d 3d 80 2d 9e 3d f3 90 f3 bd 8a 23 98 bd
       0.053975556 0.07723522 -0.11892881 -0.074286535
000220 2c f4 e8 bd 25 56 02 3e 0e 7f 1f be e6 d8 ab 3c
       -0.11374697 0.12728174 -0.15575811 0.020977449
000230 37 78 bb bd b7 ea 36 bc 4e bb 85 bd 58 b1 52 3d
       -0.091537885 -0.011164359 -0.06529866 0.05143866
000240 22 69 0c be c4 99 ed bd e2 6e b4 3d 55 b2 d1 bd
       -0.1371198 -0.11601594 0.08810212 -0.10239092
000250 63 99 36 be c2 ca 06 bd 60 60 17 be c2 e5 3d bd
       -0.1783195 -0.03290821 -0.14782858 -0.046361692
000260 82 ef 2b 3d 12 be f3 3c 66 8a 12 be 4c 03 e9 bd
       0.04197646 0.029753719 -0.14310607 -0.11377582
000270 38 f2 e0 3d 84 60 80 3d 0a 28 b4 3d 45 53 13 be
       0.109836996 0.06268409 0.08796699 -0.14387234
000280 3f 7f 00 be 60 74 a1 bd cf 6c 08 be f8 04 bb bc
       -0.1254854 -0.07883525 -0.13322757 -0.022829518
000290 bf 7e 35 3c 0a c1 db bd 13 88 07 bd 96 26 8d 3d
       0.011077582 -0.10730179 -0.033088755 0.06892125
0002a0 9a 04 f2 bd 20 b5 20 3c 4e 6c f9 bd 8b 96 01 bd
       -0.11817284 0.009808809 -0.121788606 -0.03163771
0002b0 95 32 e5 3d e8 f3 ab 3d a0 a9 23 3c ea 12 1c be
       0.111912884 0.08396131 0.009989172 -0.1524159
0002c0 4c 1f d2 3d 1a 08 d0 bd c4 71 9c 3d 58 7f b9 bd
       0.10259876 -0.10157795 0.076388866 -0.09057492
0002d0 50 8d 6f bd 4d f5 0b be 52 78 cc bd 5c a7 69 3d
       -0.058484375 -0.13667794 -0.09983887 0.057044372
0002e0 6b 62 a1 bd 68 80 a8 bd 7b be 23 be 30 3a 8a bd
       -0.078801 -0.082276165 -0.15990631 -0.0674938
0002f0 9f 09 14 bd 61 6a db bd 9d ae 0d be a2 1d 38 3c
       -0.036141988 -0.107136495 -0.13836141 0.011237534
000300 27 d6 a8 be a6 37 4a be 8f 86 4b bd 59 5f 08 bc
       -0.32975885 -0.1974779 -0.049688872 -0.008323514
000310 95 a6 00 be 56 8d 93 bd 75 e6 5d bd f3 ad cb 3e
       -0.12563546 -0.07204692 -0.05417486 0.3978115
000320 47 c2 9e be b9 27 37 3e 48 a4 5b be ab fe 5b 3e
       -0.31007597 0.17886247 -0.21449387 0.21483867
000330 c6 d9 92 3c fa de 82 3c d3 38 2e bd 02 4e 51 bd
       0.017926108 0.015975464 -0.04253466 -0.051099785
000340 c7 57 8b 3d 7d 32 86 3d 3f 67 3e 3d 67 d1 51 be
       0.068038516 0.065525986 0.046485182 -0.20490037
000350 bb ed 1c bd 85 ab ed 3d 66 1b 34 3d aa cc a2 3d
       -0.038312655 0.116049804 0.04397144 0.07949193
000360 af a0 b8 3b 72 2f 34 3e e1 e9 ac 3d 2e 6e 21 3c
       0.0056343894 0.17596224 0.08443046 0.009852929
000370 cc c7 b8 bf 0b 20 50 3f 55 f5 4e bd b2 54 17 be
       -1.4435973 0.81298894 -0.050526936 -0.14778402
000380 ca 0b ba bd b5 2b 3b be fd 9c 08 3f 7b bd 4c be
       -0.0908428 -0.18278392 0.53364545 -0.19994156
000390 81 2a 3a be 4a 92 a8 bc 20 e0 6c 3b ce ef 28 3c
       -0.18180276 -0.020577569 0.003614433 0.01031108
0003a0 7f ef 22 bc 6c 0f 5d 3c ce cc 44 ba df 10 2c be
       -0.009944796 0.013492446 -0.0007507325 -0.16803311
0003b0 d9 c9 e2 3d 13 dd 21 bf 82 18 3b bc 0b ff 50 3e
       0.11073656 -0.6322796 -0.011419417 0.20409791
0003c0 a4 39 f9 bc 05 3f 07 3e a3 56 8a 3e 0b 86 b1 3d
       -0.030422993 0.13207634 0.27019224 0.08668145
0003d0 58 6b 28 3c 3d 61 8d 3d 41 0a cc 3d f5 d7 c0 3d
       0.010279499 0.06903312 0.09962893 0.094161905
0003e0 22 c3 a7 be 57 fb a1 3a 2e 87 b8 bc 57 c4 b2 3d
       -0.32766062 0.001235823 -0.022525396 0.08728855
0003f0 c4 17 22 be d0 5a b9 3b da 14 87 be bc 9c 87 bd
       -0.15829378 0.0056565776 -0.26383096 -0.066216916

fc3.bias f4 [16]
000000 f8 42 8e 3f dc 05 d1 3d 95 b8 fa bd 68 9f 04 40
       1.1114187 0.10206196 -0.122422375 2.0722294
000010 80 1f 51 be e1 44 34 3f c9 12 4c 3f e0 77 9d bf
       -0.20422173 0.704176 0.79716164 -1.2302208
000020 41 4e a2 3f 25 46 a6 3e 76 bc 02 3f 1d 5e a5 3f
       1.2680131 0.3247539 0.5106882 1.2919346
000030 1d 13 0e 3f 90 be 7b 3f 4d d1 96 3e d4 34 22 3f
       0.55497915 0.9833765 0.2945656 0.6336186

fc4.weight f4 [4, 16]
000000 c5 54 e0 3c 0d 9e 8c 3d 5f 39 30 be c6 b1 90 3e
       0.027384171 0.06866083 -0.17209385 0.2826063
000010 af 0d 48 3e 88 d3 71 be 3b 10 bf 3d 1b 3a 14 3e
       0.1953647 -0.23615849 0.093292676 0.1447529
000020 7d 5b 6d bf 09 e9 92 bd 93 bf 0e be 1a 6e 04 bd
       -0.92717725 -0.07173354 -0.13940267 -0.032331564
000030 cb b3 a5 bb 91 6a 0f 3d cb 2d 43 3c eb 3c ae be
       -0.0050568334 0.03501374 0.011912773 -0.34030852
000040 69 48 22 3d f4 b7 7b 3d e5 1a b2 3d bd 3c 87 3e
       0.039619837 0.06145473 0.08696536 0.26413527
000050 1d cb f7 bd 82 07 c7 3c 48 47 51 be dc 41 7e 3d
       -0.12099288 0.024295572 -0.20437348 0.062074527
000060 a5 66 3b 3d 88 98 ad bc f0 d5 a4 3d 2a c5 b7 bd
       0.045752186 -0.021190897 0.08048618 -0.08973153
000070 2e 2e 0b bf 54 fc e0 3c 19 7e 09 3d 11 da b7 bb
       -0.5436734 0.02746407 0.03356752 -0.0056107123
000080 dd fa 85 bf 82 fc a5 bd 23 ff 7a ba ef 5d 79 3e
       -1.0467182 -0.08104803 -0.00095747615 0.24352239
000090 06 aa d7 3d 24 f6 c1 be 0a f5 5f 3d 36 0a c5 3d
       0.10530476 -0.37883103 0.054677047 0.09621088
0000a0 3f a3 e7 3c 05 f6 24 be de 21 c9 bc 8c 98 1e bd
       0.028276084 -0.16109474 -0.024552282 -0.0387197
0000b0 e6 28 b1 bc 21 88 a1 3e 45 24 04 bf 7b 4f e7 bc
       -0.021625947 0.3154917 -0.5161784 -0.028236141
0000c0 77 8a 26 3d 7e af ab be 70 2d ed 3d 07 18 9d 3e
       0.040659394 -0.33532327 0.11580932 0.30682394
0000d0 97 25 f1 be 6c d7 1d 3c cf f7 05 bb d6 0b bd 3e
       -0.4709899 0.00963388 -0.0020441895 0.36923093
0000e0 ae 34 ec 3c f4 45 46 3d be 52 4e bd 6f 15 eb 3b
       0.028833713 0.048406556 -0.050371878 0.007174186
0000f0 1d 7b 42 3c 25 20 bd bd c5 c5 9a 3d 77 93 fd 3c
       0.011870173 -0.09234647 0.07557253 0.030954106

fc4.bias f4 [4]
000000 8c 84 51 3f 6c 8f 5d 3f ce d7 1a 3f 97 6c 58 3f
       0.81842875 0.8654697 0.6048554 0.84540695
